CNN_MNIST.model (torch, 117719 bytes, 6 tensors)

conv1.0.weight f4 [16, 1, 5, 5]
000000 f0 5e 64 3e d1 c0 ef bd 8d 60 68 3e 1d 7b 68 be
       0.22301841 -0.11706699 0.22693081 -0.22703214
000010 d7 34 00 3e ea 32 39 bf 3b 48 9d be c7 ed 7b be
       0.12520157 -0.72343314 -0.3071917 -0.24602424
000020 aa 86 d8 be b9 5e 29 bf 6e 0b 88 3e b6 21 0a be
       -0.4229024 -0.6616016 0.2657122 -0.13489422
000030 4e 24 35 bf 1e 3d 08 bf d3 92 60 be 9d 0f 99 3e
       -0.7075852 -0.5321826 -0.21931009 0.29894724
000040 48 0f 34 3f b9 5a 76 3e 38 3e b1 3d 12 e6 d9 bc
       0.7033582 0.24058045 0.086544454 -0.026598964
000050 af 02 aa bf f8 e9 d9 be 79 f7 e3 3c e0 6e ae be
       -1.3282069 -0.42561316 0.027827965 -0.34068966
000060 a3 7f b4 3d de 0c 65 be 4c 06 11 bf 89 82 60 3d
       0.08813407 -0.2236819 -0.56650233 0.054811988
000070 ea 0b 20 3e 7c 42 75 3e 0f ed 8d bf dc b7 7b 3c
       0.15629545 0.23951143 -1.108797 0.01536366
000080 2e 42 0e 3f a8 e1 82 3e 8c 9a f1 3e 4e 82 35 3d
       0.5556973 0.25562787 0.47188222 0.04431372
000090 62 01 06 3f e5 7b dc 3d e9 ea c3 be 1b 48 6d bf
       0.5234586 0.107658185 -0.3826516 -0.9268815
0000a0 68 66 e3 3e c6 f7 db 3b d8 de 52 bf 94 0b 8d bf
       0.44414067 0.0067128865 -0.8237128 -1.1019158
0000b0 d6 72 1a be e7 fd be 3d 9f cd 58 3d dc 0f 20 3e
       -0.15082869 0.09325772 0.05293047 0.1563105
0000c0 a4 e6 87 3e b2 92 10 3f 6c 3e d4 3b cc 35 0d 3d
       0.26543152 0.5647384 0.006477168 0.034475133
0000d0 77 96 f7 3d d8 41 d0 bc 9a 72 d0 be 38 1b 90 be
       0.12089246 -0.025422022 -0.40712434 -0.28145766
0000e0 57 eb d1 be 9e bb 1c be 78 70 9b 3d 23 81 6e bf
       -0.40999863 -0.15305945 0.07589811 -0.93165797
0000f0 1a fe 3c bf 16 97 02 be 8d bb e6 bd 5d 05 ac 3e
       -0.7382523 -0.12752947 -0.11266241 0.33597842
000100 e8 ba 85 3d 2a 99 1d bf 6a e7 32 bf 86 13 33 be
       0.0652979 -0.61561835 -0.6988436 -0.17487916
000110 36 da 83 3e 20 48 0c 3e 6f dd 9b 3d cd cd 37 bf
       0.2575242 0.13699389 0.076105945 -0.717984
000120 fb a4 29 bf 05 1d fa be 2c a6 7a be dd aa 28 3e
       -0.66267365 -0.48850265 -0.24477452 0.16471429
000130 a3 34 95 bf 21 c6 dd 3c a5 6e e3 be 79 7f 68 3e
       -1.1656688 0.027072014 -0.44420353 0.22704877
000140 38 8e 8a bf 63 2b 4b bf 47 d0 a4 bf b2 40 bf bf
       -1.0824652 -0.7936308 -1.2876061 -1.4941618
000150 fa 6b 6a bf d9 7f 47 bf 4a 0f 63 bf 7c a6 fc be
       -0.9157101 -0.77929455 -0.88695204 -0.49345767
000160 c2 c5 b8 be 2c 9b 47 be d8 f9 07 bf f2 e2 56 be
       -0.36088377 -0.19492787 -0.53115606 -0.2098501
000170 30 60 c4 bd ea a5 98 bd 58 8f ae 3e 60 3a 49 3d
       -0.09588659 -0.074535206 0.34093738 0.049127936
000180 e5 90 9c 3e 19 98 f6 3d 7a 59 b5 3e 3f 8a b1 3e
       0.30579296 0.12040729 0.35419828 0.34675786
000190 c8 30 a3 bf ad b6 8b bf 05 eb 3b bf e5 be ed bd
       -1.2749262 -1.0915123 -0.73405486 -0.11608676
0001a0 7b 83 23 3f 14 21 b9 be ce e3 2e bf b8 ed c9 bf
       0.638725 -0.3615805 -0.6831635 -1.5775671
0001b0 af d4 45 bf 1d 22 bb 3e ba e9 99 be 92 2a 58 bf
       -0.77277654 0.36549464 -0.30061132 -0.8443996
0001c0 53 36 8a bf 96 29 8c bf 49 b0 d9 3d 07 30 cd be
       -1.0797828 -1.0950191 0.10629327 -0.40075704
0001d0 01 32 57 bd 7d 0f 02 bf 57 7a 34 bf a3 64 f3 be
       -0.05253792 -0.50804883 -0.70499176 -0.47537717
0001e0 be 5e c1 bd fb b9 0c 3d fe 01 4e 3e 6d c1 fd be
       -0.09441899 0.034357052 0.20117947 -0.49561635
0001f0 5b c5 1f bf c6 8f 21 3f 4a 41 02 bf b9 09 ed be
       -0.62410516 0.63110006 -0.50880873 -0.4629648
000200 24 6a 0e bf ff 92 a9 be 56 c4 65 3e 7c 9d 62 bf
       -0.5563071 -0.33119962 0.22438177 -0.8852155
000210 b5 9e fe be 7e 12 97 be cf ee f5 3e c9 38 f8 bd
       -0.4973046 -0.29506296 0.4803376 -0.12120206
000220 73 ec a0 bf 2d 55 c3 3e f1 82 55 be 17 cc ef 3e
       -1.2572159 0.3815092 -0.20850731 0.46835396
000230 de a4 b3 bd e5 8d ad bf df a6 0c 3e 33 dc 89 3e
       -0.0877168 -1.3558928 0.13735531 0.2692581
000240 17 9c d1 3e e4 72 61 bf 9b 92 41 bf 30 68 10 3d
       0.409394 -0.88065934 -0.7561433 0.03525561
000250 8f 36 1b be 95 9d 1c 3e 4b 1f 3d bf 63 e0 18 bf
       -0.15157531 0.15294488 -0.73875874 -0.59717387
000260 a4 6a 06 3e f6 29 0b be 22 ef 76 be 67 a3 89 bf
       0.13126618 -0.13590226 -0.2411466 -1.0752991
000270 b5 68 81 bf 3f 71 a6 3c 80 a1 3a be 58 dc 86 be
       -1.0110079 0.020317672 -0.1822567 -0.26339984
000280 dd 79 31 bf 3f bc 84 bf 0d 76 a8 be 23 0c 3f 3d
       -0.69326574 -1.0369948 -0.32902566 0.046642434
000290 d8 9b 94 be 3e a8 88 bf 73 27 65 bf 40 c6 b9 3d
       -0.2902515 -1.0676343 -0.8951332 0.09071016
0002a0 60 1a 93 3e 45 cb 77 bf 57 0a a4 bf 35 62 ec be
       0.2873106 -0.9679454 -1.2815655 -0.46168676
0002b0 64 03 22 3f 70 4e 01 3f 7e e6 25 bf da 59 07 3f
       0.63286424 0.5051031 -0.6480483 0.5287148
0002c0 19 05 93 be de f8 a2 be 0e 7a 82 bf 76 04 5b 3e
       -0.28714827 -0.31830496 -1.0193498 0.2138842
0002d0 55 37 c7 3e c3 c0 44 bf 54 df fd be 19 9f 88 3d
       0.38909402 -0.7685663 -0.49584448 0.066709705
0002e0 f2 00 c0 3d af 53 3b 3d 3a 37 a8 be 0a 96 42 bf
       0.0937518 0.045734104 -0.32854635 -0.7601019
0002f0 6c 98 f1 bd c6 a4 4b be bd fa c2 3c 67 40 41 bf
       -0.1179665 -0.19887075 0.023801202 -0.75488895
000300 33 a3 2d 3e 4f 05 96 bf 50 c7 19 bf 35 b5 ce be
       0.16956787 -1.172037 -0.6006975 -0.40372625
000310 48 41 64 be 3d f1 a9 bd a6 8b b3 be 0f ad 23 3f
       -0.22290528 -0.08297966 -0.3506748 0.6393594
000320 82 1f 90 3d d1 6b 8d 3e 8b 34 16 be e3 e0 d2 3c
       0.0703726 0.2762132 -0.14668481 0.025742
000330 c3 d2 29 bf b3 b0 fd bd 1b 56 9e 3e f4 bd 9e bd
       -0.6633722 -0.12387218 0.30925068 -0.077510744
000340 96 4d 0e 3c ea a8 28 bf c9 94 a1 3d f9 3c b6 3e
       0.00868549 -0.6588274 0.07889707 0.35593393
000350 a5 0e 5f 3d 5a 0b cc be e5 40 15 bf c8 03 29 3e
       0.054457325 -0.3985241 -0.58302146 0.16505349
000360 bc 2c 28 3e 34 2d e1 be 21 0d 51 bf e3 a4 9c 3d
       0.16423315 -0.439798 -0.8166066 0.07648637
000370 d2 31 8d 3e 1c 23 c8 bc 54 e8 67 be 8b f6 45 be
       0.27577072 -0.024430804 -0.2264722 -0.1933233
000380 22 f2 0d 3f e1 c4 15 bf 1e db 79 be 77 6c 5d be
       0.5544759 -0.5850354 -0.24399993 -0.21623407
000390 04 49 a9 be 6b d8 11 bf 6b db 33 bf c1 2b 87 be
       -0.3306352 -0.5697085 -0.7025668 -0.2640057
0003a0 9e da 9c bd bb 2d a2 be 7e fc ad be 9a 04 0d bf
       -0.076588854 -0.31675515 -0.339817 -0.55085146
0003b0 a5 dd c6 3d d8 9e 0f be 7a 6e 88 be 9d 2c 12 bf
       0.09710244 -0.14025438 -0.26646787 -0.57099324
0003c0 67 be 51 be 6b e0 b0 bd 38 39 9c be f1 7a e4 be
       -0.20482789 -0.08636554 -0.30512404 -0.44625047
0003d0 a2 44 4d be 27 2b 3f be 3c 5d b3 be 21 0c 0f be
       -0.20045713 -0.18668805 -0.3503207 -0.1396947
0003e0 9d ac 64 be 14 ff 02 bd 00 b7 bf bd 0a 61 32 3f
       -0.22331472 -0.031981543 -0.09361076 0.6967932
0003f0 31 8e 72 3f 25 6c bb be 0e 11 e4 be e3 2d ac bf
       0.94748217 -0.36605945 -0.44544262 -1.3451504

conv1.0.bias f4 [16]
000000 c0 b4 0d bf b2 4e 4a bf 2f 8a 32 bf 55 40 ff bd
       -0.5535393 -0.7902633 -0.697421 -0.12463442
000010 14 c1 52 be ec 01 b9 be 16 cf a3 bd 08 28 94 be
       -0.20581466 -0.3613428 -0.07998483 -0.2893679
000020 03 51 98 bf a3 cb 23 bf c5 a5 05 bf 3d a3 05 be
       -1.1899723 -0.639826 -0.5220607 -0.13050552
000030 f7 d4 4a bf 38 69 d4 bc 3a 55 91 bf 24 61 39 be
       -0.7923121 -0.025929078 -1.1354134 -0.18103462

conv2.0.weight f4 [32, 16, 5, 5]
000000 f0 45 9e bd 27 cb 17 bd 4a 8c 85 bd 90 35 1d bd
       -0.07728183 -0.037058976 -0.06520899 -0.03838116
000010 65 02 25 bd ae 92 81 bc 20 81 dc bb 28 4d 5c 3d
       -0.040285487 -0.015817013 -0.00672926 0.05378452
000020 e9 bb 5a bc 60 a0 a4 bd bb 25 ad bd 83 77 57 bc
       -0.013350465 -0.080384016 -0.08454462 -0.013151052
000030 64 6e a0 bd d2 8b ce bc ae 3e f1 bd e5 bc d7 bc
       -0.07833555 -0.025213156 -0.11779533 -0.02633519
000040 28 ea 94 bd 93 43 7e bd 85 2e 78 bd d6 5d 2e bd
       -0.07271224 -0.062076163 -0.06059124 -0.042569958
000050 47 22 14 bd f7 d7 de bd 84 64 86 bd b1 74 4c bd
       -0.036165502 -0.10881036 -0.065621406 -0.049915973
000060 d6 69 be bd 7c 4e 15 3c ca b3 dd be 25 5f 1e be
       -0.0929753 0.00911295 -0.4330123 -0.15465982
000070 23 42 79 be 00 ad 21 be 8d 7d e5 bd 1d a0 39 be
       -0.24341635 -0.1578865 -0.112055875 -0.18127485
000080 5d 82 c2 be 37 a3 c5 bd c4 7c 94 bc 43 5a 37 bf
       -0.37990084 -0.096502714 -0.0181259 -0.71622103
000090 f3 ee f9 be 9b f0 50 bd 4c d7 29 3e bc 9f 6f be
       -0.48815116 -0.05101071 0.16586035 -0.23400778
0000a0 2c 47 9d be b6 40 ce be 6e 52 35 bd 4e 17 03 be
       -0.30718362 -0.40283746 -0.044268064 -0.12801859
0000b0 79 85 bf 3d 2d 9b aa 3e 59 46 c0 bd 7b 47 59 3e
       0.0935163 0.33321515 -0.09388418 0.21218674
0000c0 81 56 c7 be f3 4b ec be 12 0e 6d bd 74 c0 4b bd
       -0.38933185 -0.46151695 -0.057874747 -0.049744084
0000d0 be bd c3 3a 88 7d 5e 3c 62 cc 30 bd 16 6a c8 bc
       0.0014933867 0.013579734 -0.043163665 -0.024464648
0000e0 f6 13 4c bd af 70 06 bd 86 9e 91 bc f7 89 cc bd
       -0.049823724 -0.032822307 -0.017775785 -0.09987252
0000f0 05 61 9d bd 54 27 5d bd a7 b9 0d bd 1a 0c 85 bd
       -0.07684521 -0.053992584 -0.03460088 -0.06496449
000100 aa e4 f8 bd 0e 55 ae bd 62 3d 4e bb 27 50 8d bd
       -0.12152989 -0.08512317 -0.0031469692 -0.069000535
000110 f7 33 b6 bd b2 80 a1 bd 96 d2 bc bd f5 16 a3 bd
       -0.0889663 -0.07885875 -0.092198536 -0.07963363
000120 ec 9c b3 bd 6d 06 ec bd 79 a6 42 bd c2 b6 2d bf
       -0.08770165 -0.11524663 -0.047522042 -0.6785699
000130 37 60 e3 be 4a 05 f1 be ed 7f 81 bd c6 e7 ea bd
       -0.44409344 -0.47074348 -0.06323228 -0.114699885
000140 63 72 98 be b6 37 6d be fa cb 47 bd 3e 46 08 be
       -0.2977477 -0.23165783 -0.04877851 -0.13308045
000150 dd 07 86 be e8 2c be be 46 4e 96 be ca e4 86 be
       -0.26177874 -0.37143636 -0.29356593 -0.26346427
000160 db e8 be be 30 47 71 be ce 9d 10 bf c0 98 b6 be
       -0.3728703 -0.23562312 -0.5649079 -0.35663414
000170 1e fd 85 be df e9 39 be 02 64 33 be 10 73 9e be
       -0.26169676 -0.18155621 -0.17518619 -0.3094716
000180 f0 71 e4 be 06 85 90 3e c3 1a a4 be 06 71 8f be
       -0.44618177 0.2822649 -0.32051668 -0.28015918
000190 5d e6 1e bc 4b b2 2e be 93 1f 22 be f9 aa a0 bb
       -0.009698478 -0.17060201 -0.15832357 -0.004903194
0001a0 d7 c3 8f be fc 83 95 bc aa c1 d1 bc b5 9b da bc
       -0.280791 -0.018251412 -0.025605042 -0.026685575
0001b0 19 18 b2 bd 13 bd 2d be fd c2 92 bd a9 90 3f bd
       -0.086960025 -0.16966657 -0.07166097 -0.046768818
0001c0 da 3e 94 bd 48 3c 39 bd 00 e4 e7 be 31 9c 92 bc
       -0.072385505 -0.045223504 -0.45291138 -0.017896743
0001d0 ff c7 81 bd 27 65 51 bc e3 81 ef bc 5a bf b3 be
       -0.06336974 -0.012780464 -0.02923674 -0.35106927
0001e0 f0 65 0a bf a9 41 3a be 99 55 8d be 2a 79 88 be
       -0.54061794 -0.1818911 -0.27604368 -0.2665494
0001f0 fe 93 eb be d2 a9 b7 be a3 87 91 bd 12 e3 3f bf
       -0.46011347 -0.3587175 -0.07105949 -0.74955857
000200 26 12 ec be 95 5e 3e bf 2b cd c8 bc 7f 8d 7b bf
       -0.46107596 -0.7436307 -0.024511894 -0.9826278
000210 65 36 6c bf a1 fd b7 be e7 c4 11 bf c1 82 bc 3e
       -0.922705 -0.3593569 -0.56941074 0.36818507
000220 3e e8 48 bf 35 d3 57 bf 0b fe 1a bf 08 7d 6f be
       -0.78479373 -0.8430665 -0.6054389 -0.2338754
000230 64 d1 8f bf db 7a 08 bf d0 4c 3a bf 70 14 5d be
       -1.1235776 -0.5331246 -0.72773457 -0.21589828
000240 4b 31 69 be 18 86 76 be cc b9 7b be 74 75 d0 be
       -0.2277271 -0.2407459 -0.24582595 -0.4071461
000250 57 ac 5c be a8 07 3a be 13 28 5e be e0 c1 1b bf
       -0.21550117 -0.18166983 -0.21694975 -0.60842705
000260 6c cb df 3d c9 77 37 bc 72 c7 bd 3c 8a a2 e1 be
       0.109274715 -0.011197993 0.023166392 -0.4406932
000270 e6 d0 ba be 03 7f 05 bf a0 84 23 be d3 d4 04 3d
       -0.36487502 -0.5214693 -0.15968561 0.032429527
000280 c1 6e af be 7e eb 38 3e ab 11 4f be 78 36 8f be
       -0.34264186 0.18058583 -0.20221584 -0.27971244
000290 61 b9 5f 3e 35 1f c1 be bc 3c a6 be fb ec eb be
       0.2184806 -0.37719122 -0.32468212 -0.4607924
0002a0 fa 76 23 bd 47 07 13 bf a1 8f 10 be d9 4d 82 3e
       -0.039908387 -0.5743298 -0.1411729 0.25450018
0002b0 ff 60 f0 be d4 aa a2 be c1 cb 13 bf b7 f4 08 bf
       -0.46949002 -0.31770957 -0.5773278 -0.53498405
0002c0 43 6b d2 be d3 a7 87 be 4a 37 ae be be 13 28 bf
       -0.4109746 -0.26495227 -0.34026557 -0.65655124
0002d0 d5 6f 8e be f5 61 d2 be 01 5d 85 be 33 c6 fe be
       -0.27819696 -0.4109036 -0.2604752 -0.4976059
0002e0 b2 83 96 be c7 c6 00 3e 21 fa b9 be 8c 73 2b be
       -0.2939735 0.12575828 -0.36323646 -0.16743296
0002f0 8c 6a 66 be 7e 59 67 3c f9 0f 1b bf ac 66 f7 be
       -0.22501582 0.014120458 -0.6057125 -0.4832052
000300 9b 74 cd be ac 0f 2f be 48 ec e3 bd 77 98 ca be
       -0.40128025 -0.17095822 -0.111290514 -0.39569446
000310 05 f9 0a bf 42 d6 fc be 1d b7 b7 3c 00 60 1e bf
       -0.54286224 -0.49382216 0.022426182 -0.61865234
000320 f3 2c 60 be 10 00 13 bf 0e 66 1a 3e 20 66 90 be
       -0.21892147 -0.5742197 0.15077993 -0.28202915
000330 4c 00 17 3e 11 f8 d8 be d8 74 fa be 1e 01 5f bd
       0.14746207 -0.4237676 -0.4891727 -0.054444425
000340 33 b6 9a be d1 f7 10 3d b0 ff 00 bf c9 77 db be
       -0.30217132 0.035392586 -0.5039015 -0.42864826
000350 a7 a6 a9 3b 5e 7e 26 bd 13 c5 fb 3d 71 62 cf be
       0.005177337 -0.040647857 0.12293448 -0.40504792
000360 1a 9f 49 bf 8f b6 ad bd d4 8d 6b 3e 8d 83 7e 3e
       -0.78758395 -0.08482086 0.23003322 0.2485487
000370 76 8a fa bc 72 7a 15 bf 46 49 f4 bc 08 36 56 3e
       -0.030583601 -0.5838996 -0.029820096 0.20919049
000380 6e ce 16 3d 9a e2 11 bd e7 f6 3d 3c 70 19 51 3c
       0.03681796 -0.035616495 0.011594511 0.012762412
000390 5a 05 ec bc ad 54 ac bd 7d 41 5b bd 83 4e 61 bd
       -0.028811146 -0.08414588 -0.05352925 -0.055006515
0003a0 3f ae f7 bd 33 d3 a9 bd cf 2f 23 bd 97 24 68 bd
       -0.12093782 -0.08292236 -0.039840516 -0.05667552
0003b0 2a 91 b0 bd c7 88 be bd 30 4a 07 bc 7a 03 cf bd
       -0.08621438 -0.09303432 -0.008257434 -0.10108085
0003c0 d5 89 9c bd 2d 0e dd bd b8 ef 91 bd f7 c0 a6 bd
       -0.07643477 -0.107937194 -0.07125801 -0.08142274
0003d0 76 f5 e1 bd 0c c5 b7 bd 70 9c a4 bd 44 81 33 bd
       -0.11033146 -0.089731306 -0.080376506 -0.04382445
0003e0 4c cc db bd af 1b 80 bd a2 9d 1e bf cf 41 ba be
       -0.10732326 -0.0625528 -0.6195928 -0.36378333
0003f0 f4 97 b1 be f2 09 7d be fa ce ba bd cb b9 20 be
       -0.34686244 -0.24710825 -0.09121509 -0.15695874

conv2.0.bias f4 [32]
000000 17 a2 a5 be 75 e5 a5 be 65 6e 96 be bc c0 2e bf
       -0.32350227 -0.32401624 -0.293811 -0.6826284
000010 99 df da be 07 05 31 bf e7 7b 04 bf 8b 2a 79 bc
       -0.42748716 -0.69148296 -0.5175156 -0.015207897
000020 b9 95 11 bf fb 40 6a bd 89 54 a1 bd c0 69 db be
       -0.56869084 -0.057190876 -0.07877452 -0.42854118
000030 36 c0 a2 bc 86 86 e8 bd 5b c0 84 be 59 7d 42 bc
       -0.019867044 -0.11353783 -0.25928006 -0.0118707055
000040 ee 7b 71 bd 6d cd db be 0e 71 93 bf f0 d8 0f be
       -0.05895608 -0.42930165 -1.1518877 -0.14047599
000050 77 3f 87 bc d5 8c 25 bf e6 f3 2e be 38 bf f5 be
       -0.016509755 -0.6466802 -0.17085227 -0.4799745
000060 e5 f6 2f bf 82 81 b8 bd a8 fb cf bb da 64 15 bd
       -0.68736106 -0.09009077 -0.0063471384 -0.036473133
000070 d0 98 16 bf 00 82 7c bf e1 7f 16 bf 97 0c 4e be
       -0.58826923 -0.98635864 -0.5878888 -0.2012199

out.weight f4 [10, 1568]
000000 5e 3a f4 be fc 84 01 bf be 73 28 bf d0 f0 f6 be
       -0.4770078 -0.50593543 -0.6580161 -0.482306
000010 08 ee 1c be ba 06 4a bf e1 26 1f bf 9f 5f 0b bf
       -0.15325177 -0.78916514 -0.621687 -0.5444278
000020 23 81 00 bf f6 b4 21 3d 65 63 41 3e f9 3a 1a bf
       -0.50197047 0.03947922 0.18885572 -0.60246235
000030 8d 1a ab be 28 10 f1 be 1f 0b 39 bf 48 f6 8a 3d
       -0.33418694 -0.4708264 -0.72282594 0.06785256
000040 5e 0e 60 3d 24 57 b2 be 27 da 11 bf d4 5f 53 be
       0.0547012 -0.34832108 -0.569735 -0.20642024
000050 b6 99 5e bf 3e d9 04 bf b7 12 57 3d 19 c6 39 be
       -0.86953294 -0.51893985 0.052508082 -0.18141975
000060 49 75 0f bf 62 67 f0 be 97 78 22 3b 13 1e 0b be
       -0.5603834 -0.46953875 0.0024791115 -0.13585691
000070 0d 0e b3 be 1b 8c 00 3d 6d 95 e8 be b7 cb aa be
       -0.34971657 0.031383615 -0.45426503 -0.33358547
000080 f2 02 81 be 4e fa 3d be fe 7a fd be c7 62 af be
       -0.2519756 -0.18552515 -0.49507898 -0.3425505
000090 a2 f5 a7 3d c2 a1 e9 bc 86 1e 87 be c5 b9 51 be
       0.082011476 -0.028519515 -0.26390475 -0.20481022
0000a0 ee af 09 be 82 8f 1e be 40 6b ca be 1e ff 64 be
       -0.13446018 -0.15484431 -0.3953495 -0.22362944
0000b0 40 62 84 3d 9b 54 35 bd 44 76 2e 3d 52 82 c8 be
       0.06464052 -0.04427014 0.042593256 -0.39161927
0000c0 31 eb 10 bf d0 10 e2 bd 78 a4 a2 bd de 7a 54 bd
       -0.56608874 -0.11038363 -0.07941526 -0.051874988
0000d0 0d 4c 1e be e4 44 15 bd ad df d4 3e 6f 0a 23 bf
       -0.15458699 -0.036442652 0.415769 -0.63687795
0000e0 54 6a 92 bc bb 8a 24 be 39 48 93 be af d8 50 bf
       -0.017872967 -0.16068546 -0.2876604 -0.8158063
0000f0 2b e5 53 3e 57 6b fb 3e f9 c2 89 3e 26 d7 ba 3d
       0.2069289 0.4910533 0.26906565 0.091230676
000100 e8 bf 1b be f9 eb 8b be 2b 47 d9 bd 4c ce b8 ba
       -0.15209925 -0.2732847 -0.10609277 -0.0014099567
000110 22 cb 2c 3e ce a4 2a 3f c4 5d 35 be 0e 65 80 3f
       0.16874364 0.6665772 -0.1771155 1.003084
000120 d3 d0 94 3e 5d ac 4e be 5a 6d f7 bf 35 4e 3b bf
       0.2906557 -0.20182939 -1.9330246 -0.7316621
000130 5b 9b 1c bf 63 ec 07 be c2 20 5b bc b4 09 7e be
       -0.61174554 -0.13273768 -0.013374509 -0.24808389
000140 3a 3f 5a 3d e3 a8 4c 3e 09 d4 26 3f ae 6b 16 bf
       0.053282954 0.199863 0.6516729 -0.58758056
000150 f9 70 49 be 9e d7 1c bf e9 1d 32 be b9 39 32 3e
       -0.19672002 -0.61266506 -0.17394222 0.17404832
000160 c5 c9 22 3e 38 7a 0a 3e ca ad c3 be 89 ec 86 bd
       0.15897281 0.13523185 -0.38218528 -0.06588084
000170 ec de 52 bf a7 bf b0 bf b6 db 3c bf 74 db d9 bd
       -0.823714 -1.3808488 -0.7377275 -0.106375605
000180 b8 8b fc be a7 6d 04 bf 58 fb 5f bf 30 41 95 3d
       -0.49325347 -0.51729816 -0.87492895 0.07287824
000190 5f a9 2a bf dc 9e 56 3f 47 61 9c be 2a e3 8a 3d
       -0.6666469 0.8383615 -0.30542967 0.06781609
0001a0 1c b6 14 bc 48 f8 1f bf f4 c5 48 bf 00 3b 17 bf
       -0.009076621 -0.6248822 -0.7842705 -0.590744
0001b0 68 b7 af bd d4 e3 6e 3e 63 f7 19 3c f2 66 3c 3f
       -0.08579904 0.23329097 0.0093973605 0.7359458
0001c0 f9 ef d5 be 81 fa 36 bf 10 29 30 bf 56 a6 bc bd
       -0.41784647 -0.7147599 -0.68812656 -0.092114136
0001d0 59 e1 ee 3c c6 bd 7c 3e 68 bb f4 3e 8f 04 71 3f
       0.029160189 0.24681768 0.4779923 0.9414758
0001e0 9d 2a f4 3e 0e fc 60 bf 31 a8 22 3e 94 d8 f6 3d
       0.4768876 -0.87884605 0.15884472 0.12053028
0001f0 49 f2 76 3d 41 0c d9 be e6 ec 23 3f a0 d3 13 3f
       0.060289655 -0.4239216 0.64033353 0.5774479
000200 1f 10 ae be fc 58 27 be 15 b6 37 3e a8 4c 60 be
       -0.33996674 -0.16342539 0.17940553 -0.21904242
000210 6b 2d 9a be 55 7e 07 3e 48 2c 76 3f 52 bb 6a 3f
       -0.30112776 0.13231786 0.9616132 0.9169208
000220 07 0e 93 be 20 55 14 bd 8e fc 3c 3e 70 9d 02 be
       -0.2872164 -0.036213994 0.18455717 -0.1275537
000230 8b fd da 3c 19 29 08 bf a1 d6 15 bf f5 71 f6 be
       0.026732227 -0.5318771 -0.5853062 -0.48133817
000240 a5 bc 8f bd 45 4f d8 be 6d 89 3f 3e 83 64 da be
       -0.07018403 -0.42247978 0.18704768 -0.4265481
000250 ae 47 58 be eb 02 54 bf c1 b1 f3 be d5 3d fb bd
       -0.21121094 -0.8281695 -0.47596553 -0.12267653
000260 c5 2a aa bb a7 28 8a bd 37 33 40 be 97 aa b2 be
       -0.005193087 -0.06746035 -0.18769537 -0.34895775
000270 00 10 64 be 34 52 bf bc 3a b6 15 3e 2f fd 48 3e
       -0.22271729 -0.023354627 0.14620295 0.19627832
000280 02 ff 68 bc ae ee e5 bd c1 53 0c bf 0f 3d b5 be
       -0.014220955 -0.11227165 -0.548153 -0.35398147
000290 5f 9a 85 bd 67 5f af be 5b 7a 17 be a9 e9 69 bc
       -0.065235846 -0.34252474 -0.14792769 -0.0142769
0002a0 12 70 07 bf 09 1f a9 be d3 d1 fd be 21 79 c9 bd
       -0.5290538 -0.3303149 -0.49574146 -0.09837557
0002b0 4f 2a 38 bf 23 cf e8 be 68 51 dc 3d fc 40 35 3e
       -0.7193956 -0.45470533 0.107577145 0.17700571
0002c0 fb ad 14 bd 5e 6d cd 3e 8a a3 34 3e e5 5b 03 be
       -0.036298733 0.40122503 0.1764051 -0.12828024
0002d0 7b 4b b1 3d d9 42 0b 3e c8 1b 7e bf 17 55 20 3e
       0.08656975 0.13599719 -0.9926114 0.15657459
0002e0 6e d8 ab 3e 8f 93 62 be 6f 7b 5c be 08 af 4b 3e
       0.3356356 -0.22126602 -0.21531461 0.19890988
0002f0 18 7c ab bc f8 a7 76 bd 22 34 f5 be be 25 30 bf
       -0.020933196 -0.06021878 -0.47891337 -0.6880759
000300 65 f9 0f bf e0 49 77 be ae c0 9a be 22 0a 16 be
       -0.5623992 -0.24149275 -0.30225128 -0.14652303
000310 dc 81 36 bd 51 fa 42 3c 4c 0d 80 be dd 80 04 be
       -0.044557437 0.0119005 -0.25010145 -0.12939782
000320 27 0c 1d 3d a3 17 c7 3c f3 52 f0 3b f5 e6 a8 bd
       0.038341668 0.024303263 0.007334107 -0.082471766
000330 a9 ef 78 be 54 f2 bb be d7 d0 1b be 7f 10 41 bd
       -0.24310173 -0.3670832 -0.15216385 -0.047134873
000340 0d 27 61 bd 71 80 f0 bb be 6a 5d be 9d 4a ab be
       -0.054968882 -0.00733953 -0.2162275 -0.33455363
000350 b7 cb 3c be c3 95 c0 3d 7f e7 63 be cf a8 9b 3d
       -0.18437086 0.09403565 -0.22256278 0.07600557
000360 01 70 c9 be 5f 25 76 be b5 ce c5 be b7 90 48 bc
       -0.39343265 -0.24037693 -0.38634267 -0.012241534
000370 7f dc 9f be bf 99 68 be f8 61 4b 3e 6d f5 8c bd
       -0.31222913 -0.227149 0.19861591 -0.06882749
000380 75 7a 84 bd d6 6f 7e be 26 8f cf be 05 56 a0 be
       -0.06468669 -0.2484735 -0.405389 -0.31315628
000390 ae e0 14 3e f0 25 4c 3e 9d 08 c3 bc b8 bb c0 3a
       0.14538833 0.19936347 -0.023807818 0.0014704382
0003a0 89 b8 fa bd 3d 43 a7 3e fa af 59 3e 56 a6 fd 3e
       -0.122422285 0.32668486 0.21258536 0.49540967
0003b0 3c ae ec 3e 4c 98 58 3d 97 b7 9e 3d 77 73 c0 3e
       0.4622668 0.052879617 0.07749861 0.37588093
0003c0 ad cf c1 3e 0e 44 aa 3e cc 6c 7b 3e 09 38 1d 3e
       0.37853757 0.33255047 0.24553221 0.15353407
0003d0 67 26 7c 3d 3b 3e 21 bf a6 07 11 bf 7f 73 82 3e
       0.06156006 -0.6298558 -0.56652296 0.25478742
0003e0 dd c5 8c be 6a 9e c7 bf 3d 8b a3 3e bd ae 94 be
       -0.27494708 -1.5595219 0.31942168 -0.29039565
0003f0 1b 5c 8b bf 25 50 28 bd ab e9 76 3e 19 96 2f be
       -1.0887483 -0.041092057 0.24112575 -0.17147101

out.bias f4 [10]
000000 5a 00 63 3c 32 74 6c 3f cd 38 77 be 46 b9 fd 3d
       0.013855064 0.923648 -0.24142762 0.12388854
000010 54 93 e0 3c 04 51 bb bd 70 4b c0 bd 34 6e 62 3e
       0.027414002 -0.09146312 -0.093893886 0.22112352
000020 de d6 5f be 2b 71 99 be
       -0.21859309 -0.29969153
