CNN_ROT.model (torch, 80087 bytes, 6 tensors)

conv1.0.weight f4 [16, 1, 5, 5]
000000 34 63 a2 be ba 6d d4 be 9c c5 1e be a1 8b b2 bd
       -0.3171631 -0.41489965 -0.1550507 -0.08718038
000010 cd 3a 89 bd 67 8e b7 bc eb 90 5c bf 04 f3 cf bf
       -0.067006685 -0.02240677 -0.8615863 -1.6246037
000020 3f 6b 53 bf 40 5f 0d bf 4f d5 eb 3d 05 3a da bf
       -0.8258552 -0.55223465 0.11515295 -1.7048956
000030 a1 d2 89 3e 96 fc 9f bf 8b 38 76 3d 90 b7 d5 be
       0.2691851 -1.2498958 0.060112517 -0.4174161
000040 7f 9b c7 bf 49 4a d7 bf c1 87 b7 bf 4f 16 ac bc
       -1.5594329 -1.6819545 -1.4338304 -0.021006731
000050 05 a9 ae be 53 1a 3d be 0c db c4 bc 82 96 0c bf
       -0.34113327 -0.18467073 -0.024030231 -0.54917157
000060 a5 39 a7 be 94 cf 4e 3e b4 f4 4d bd 19 d7 13 be
       -0.32661167 0.20196372 -0.050282195 -0.14437522
000070 af 3a 4c 3e 78 70 55 be 26 cd ee 3d 95 5a b6 be
       0.19944261 -0.20843685 0.11660223 -0.35615984
000080 bf 76 de be 12 85 f5 3d 0f e9 9f bd cf 99 5c bf
       -0.4344997 0.11988272 -0.07808124 -0.86172193
000090 91 a2 ff be 97 cb 88 be 37 97 26 3e 69 de 9a bd
       -0.49928716 -0.26717827 0.16268621 -0.075619526
0000a0 72 17 23 be a8 a2 db be 04 e3 b4 3c 78 8a 3f bd
       -0.15926912 -0.42897534 0.022080906 -0.046762913
0000b0 96 1b 8f 3a 5f 6a f0 3e 29 d1 f6 3d e3 69 b4 3d
       0.0010918255 0.46956155 0.12051613 0.08809259
0000c0 da 51 29 3e dc c2 2a bd 6e 72 d6 be e0 b0 f4 bd
       0.1653513 -0.04168974 -0.41884178 -0.11947799
0000d0 33 bf 8b be 3c 5a 19 be a7 b6 0d bf 2e 16 07 bf
       -0.2729431 -0.14975828 -0.5535683 -0.5276822
0000e0 e9 a9 61 be 67 ca bd be 42 b3 11 bf 4e 7a 38 bf
       -0.22037472 -0.37068483 -0.5691415 -0.7206162
0000f0 40 16 a4 be 24 d5 5d be fb 34 0f 3d 8f ee 02 3f
       -0.32048225 -0.21663338 0.034962635 0.5114526
000100 96 f4 a5 3e 36 b4 45 bd 3d fa 0c be 3f b5 d5 be
       0.32413167 -0.048267566 -0.13767333 -0.41739842
000110 4b ce 09 bf b2 cd 54 bf cb 67 07 3d 67 91 4c be
       -0.53830403 -0.83126366 0.03305797 -0.19977342
000120 a0 ee 56 be e2 ed fc bd e6 08 8c be ab 43 b8 bc
       -0.20989466 -0.1235006 -0.2735054 -0.022493204
000130 76 fa 7e 3d 34 79 f1 bc 04 cf 23 3e 88 b1 a2 3d
       0.062250577 -0.02947674 0.15996939 0.07944018
000140 ed 89 eb 3c 78 e4 33 3d f0 fd 89 3e e5 03 e7 bb
       0.028752292 0.043919057 0.2695155 -0.007050025
000150 2a 53 1d bd 73 b5 62 3d d4 9c c8 3d 43 a2 08 3f
       -0.03840939 0.055348825 0.097955376 0.5337259
000160 52 b1 0f 3e 16 70 eb 3c ef d8 59 3d 75 5f 4c bb
       0.14032486 0.02873997 0.0531854 -0.0031184827
000170 da 9c 44 3d 61 2d c3 3c db 02 af 3d 9d f6 13 bc
       0.048001148 0.02382535 0.085454665 -0.009030965
000180 7f 05 9a 3d 80 be 7c 3b eb 5b e0 3c 0c 7e 18 3e
       0.075205795 0.0038565695 0.02738758 0.14891833
000190 cf 60 b8 be e0 5c 55 bf 31 c6 24 bf dd 49 aa be
       -0.3601136 -0.8334484 -0.64364916 -0.33259478
0001a0 3e 23 2b bd 8b a9 8d be 0d f3 1d bb 69 a8 b6 3e
       -0.041781656 -0.27668414 -0.0024101168 0.35675362
0001b0 15 18 e9 3e 8a c3 1c bd 07 c6 05 3f fd 4e 55 bd
       0.45526186 -0.038272418 0.5225529 -0.052077282
0001c0 ad 28 01 bf 94 d1 59 bf 4e 58 9b bf bb 32 a2 bb
       -0.5045269 -0.85085416 -1.2136323 -0.004949895
0001d0 a4 30 d8 bf 0e 83 49 bf 80 a7 1b bf 9c cb c1 be
       -1.6889844 -0.787156 -0.6080246 -0.37850654
0001e0 02 f2 c5 be 7f 00 ab be e2 cb 08 be ef 45 47 be
       -0.386612 -0.33398816 -0.13359025 -0.19460271
0001f0 b6 db 08 be 1f d2 52 3e ef 67 32 bf e4 91 95 bf
       -0.13365063 0.20587967 -0.6968984 -1.1685147
000200 1d a6 06 3d 09 2e 0c 3f 93 96 c9 3e 9b 0b af 3d
       0.03287326 0.54757744 0.39372692 0.085471354
000210 45 68 93 bf d1 7e fb be 3f dc 72 3d c1 88 8c 3e
       -1.1516196 -0.4912019 0.059292074 0.27448085
000220 66 69 de bd 9c 47 24 be 05 bb 86 bf 43 0a 30 be
       -0.10859947 -0.16042942 -1.0525824 -0.17191415
000230 b4 82 b2 3e 87 42 aa bd 3c cb ca be 34 29 bd be
       0.34865344 -0.0831347 -0.3960818 -0.36945498
000240 8c 45 05 3e c2 1f e9 3d 4b c0 c8 3d b9 67 6d be
       0.13014811 0.113830104 0.09802302 -0.23184098
000250 12 f9 d2 be 20 2a b7 bc 2a d8 19 bf f5 7b b6 be
       -0.4120565 -0.022358954 -0.60095465 -0.35641447
000260 aa db 81 be fd 33 80 bf c8 4f 53 bf db 69 9d bd
       -0.25362903 -1.0015866 -0.8254361 -0.07686206
000270 61 ee 84 be ad c3 14 3f b1 96 cc 3e c7 86 56 be
       -0.2596312 0.5811108 0.39958718 -0.20949851
000280 5d 6d 5b bf ff 77 f6 be e2 80 77 be 53 3c 9e bf
       -0.8571375 -0.48138425 -0.24170259 -1.236216
000290 a3 b6 89 bf ae b9 01 bf 39 36 a3 3e 54 46 45 bf
       -1.0758861 -0.5067395 0.31877306 -0.7706044
0002a0 1e 14 1b bf eb a3 8c be 7c e6 74 bf a1 1c 7e 3f
       -0.6057757 -0.2746881 -0.9566419 0.99262434
0002b0 4b 90 81 bf 09 9b c7 bf cb 37 93 bf 0b 6d ea 3e
       -1.012216 -1.5594188 -1.1501402 0.45786318
0002c0 e2 91 2f bd 6d e1 f9 be 2a 78 53 3d a1 60 a9 bf
       -0.042863734 -0.488048 0.05162827 -1.3232614
0002d0 21 5b 81 3d 09 6e 81 bf aa 92 06 bf a2 78 54 bf
       0.063162096 -1.0111705 -0.5256754 -0.8299657
0002e0 e9 46 d3 be 75 dd d3 be 50 53 5f bf 45 66 c3 3d
       -0.41265038 -0.41379896 -0.872365 0.09540991
0002f0 48 72 3c be af 61 5e 3e 63 18 e5 bf e9 e1 14 bf
       -0.1840297 0.21716951 -1.7898067 -0.5815721
000300 b4 e3 52 bd f6 39 9e 3c 9f ec fb 3e c2 ad 42 bf
       -0.051486686 0.019314747 0.49203965 -0.76046383
000310 42 7e 71 3d d0 d9 5a 3e a9 fc 83 be 71 de 7f 3e
       0.0589583 0.21372151 -0.25778702 0.24987198
000320 a7 7f f6 bd fd d4 ba bd bc 05 17 bf 24 73 21 be
       -0.120360665 -0.091226555 -0.58993125 -0.15766579
000330 b0 b4 53 be dc d5 46 be 5d 42 e0 be c0 08 8b bf
       -0.20674396 -0.19417518 -0.4380063 -1.0862045
000340 99 13 55 3e 23 a3 1e 3e a7 3f 95 bf 17 51 35 bf
       0.20808257 0.15491919 -1.166005 -0.7082686
000350 65 ab e3 be b6 60 c0 bf ad 3a 9e bf 24 d1 78 bf
       -0.444667 -1.5029514 -1.2361656 -0.97194123
000360 3b 46 4d bf af 21 25 be 54 ab 21 3e 39 8f 1e bf
       -0.8018529 -0.1612613 0.15788013 -0.6193729
000370 c9 d6 53 bf c2 4c 2a bd cc e7 5f 3f af c8 ad 3e
       -0.8274961 -0.04157711 0.8746307 0.33942172
000380 ce 7d e6 bf 9b 1f e7 be 95 63 70 bf e7 f8 88 3d
       -1.8007143 -0.451413 -0.9390195 0.06688099
000390 7e fd 8e bc a9 4d 2c bc de d7 6e bf 0b 54 af be
       -0.017454859 -0.0105165625 -0.9329814 -0.34243807
0003a0 d1 42 28 bd 03 76 ff 3e 6f 49 7c 3e 2b 55 ca bf
       -0.041079346 0.49894723 0.24637388 -1.5807241
0003b0 60 91 bc 3d 81 a4 1c be b3 ce 0a 3f 88 82 b0 3d
       0.092074156 -0.15297128 0.5422165 0.08618647
0003c0 62 2f 8b bf c1 67 06 bf 42 88 0d be 21 04 28 3e
       -1.0873835 -0.52502066 -0.1382151 0.16407825
0003d0 f5 0e 96 3d 13 db c6 3e 84 fd a2 bf 7a f4 e0 bf
       0.073270716 0.38839015 -1.2733617 -1.7574608
0003e0 5d 76 8c bf 02 92 73 bf a1 dd 47 3d dd 16 f4 bd
       -1.0973622 -0.95144665 0.048795346 -0.11918423
0003f0 61 ed e9 3d ff 51 55 be ef 40 69 be 19 80 d8 bd
       0.114222296 -0.2083206 -0.22778676 -0.10571308

conv1.0.bias f4 [16]
000000 cc 03 ce 3e 6f 46 6f bf 2e 22 96 be e8 68 f9 be
       0.40237272 -0.9346685 -0.29322952 -0.4871285
000010 6c c5 e0 be 51 0e ab be 83 04 2d be fc 1f fb bd
       -0.4390062 -0.3340936 -0.16896252 -0.1226196
000020 eb ae 7d be 47 d3 cc be a0 c8 f0 be 7b ef af bf
       -0.24773757 -0.40004942 -0.47028065 -1.3744959
000030 46 b1 44 bf 65 00 65 bf 78 3a 79 be c8 e8 e6 3d
       -0.76833 -0.89453727 -0.2433871 0.11274868

conv2.0.weight f4 [32, 16, 5, 5]
000000 02 c7 d5 bd 44 53 f9 bc 5a 18 c6 bc a0 0f c0 bd
       -0.10438348 -0.030435212 -0.024181534 -0.0937798
000010 ab f2 8c bd 9d a4 d7 bc c6 23 de bd 71 c7 1a bd
       -0.06882223 -0.02632361 -0.10846667 -0.03778786
000020 6f 37 c0 bd 94 31 ab bd 38 d1 9f bd 0d f1 28 bd
       -0.09385573 -0.08359066 -0.07803577 -0.04124551
000030 df 66 86 bd f2 a5 90 bd b5 0f c2 bd 5b f5 b3 bd
       -0.0656259 -0.070629016 -0.09475652 -0.08787032
000040 65 d5 c4 bd 4c 80 9d bd a6 a6 0e bd 45 4d a6 bc
       -0.09611014 -0.07690486 -0.034826897 -0.020300517
000050 49 84 d5 bd 1a 9b ba bd d2 f4 db bd e5 38 cd bd
       -0.10425622 -0.091116145 -0.10740055 -0.100206174
000060 8e 88 da bd ca 80 d1 bd 82 7c d4 bd 83 fc 25 bd
       -0.10670577 -0.10229643 -0.103753105 -0.040524017
000070 c9 09 20 bd b4 29 66 bd dd 1e 8f bd be 9a ac bd
       -0.03907183 -0.056192115 -0.069883086 -0.08427952
000080 d3 3f b8 bc bd fe 92 bd 49 d8 39 bd 05 9b 0d bd
       -0.022491371 -0.07177494 -0.04537228 -0.034571666
000090 82 53 96 bd cc 3a d7 bd f3 a7 c8 bc 51 d8 54 bd
       -0.073401466 -0.105092615 -0.024494147 -0.051964108
0000a0 2c 6e bb bd 46 82 f6 bc 0e d4 cc bd 53 16 c9 bd
       -0.09151873 -0.030091416 -0.10001384 -0.09818711
0000b0 76 43 d4 bd 28 37 a6 3c 45 eb 9f 3d 35 4c 35 bd
       -0.1036443 0.020289972 0.07808546 -0.04426213
0000c0 4f 96 ad bd ef d3 b3 bd 1e 48 a1 bd 83 65 19 3d
       -0.08475935 -0.087806575 -0.078750834 0.037450325
0000d0 d3 ed c5 bd 19 ff 8e bc 6b 14 06 3d 2e 90 dc bd
       -0.09664502 -0.017455624 0.032734316 -0.107696876
0000e0 ce 7d c4 3d 7e 26 ce bd 76 06 00 bd 42 d6 b4 bd
       0.09594308 -0.100659356 -0.03125616 -0.08829929
0000f0 37 69 98 bd 5c d7 89 3d 7a b1 95 3d f6 78 27 bd
       -0.07441943 0.0673053 0.073092416 -0.04088684
000100 6a e8 c3 bd b0 d1 cf bd 26 89 b6 3d e0 84 26 bd
       -0.09565814 -0.101474166 0.08912878 -0.040654063
000110 77 e6 43 bd ea a1 a2 bd 0b c7 69 3d 53 60 5c 3d
       -0.04782721 -0.07941039 0.057074588 0.0538028
000120 8a 3f 2a bd 49 98 31 bd 1b f8 a3 bc 28 8f 01 bd
       -0.0415645 -0.04335812 -0.020015767 -0.031630665
000130 88 7d 67 bc 48 40 91 bd 45 8b 13 bd b2 a1 6b bd
       -0.01412905 -0.07092339 -0.03602149 -0.05752725
000140 ac 08 11 bd 03 e0 69 bd fa 59 aa bd 3d db a3 bd
       -0.03540866 -0.0570984 -0.08317943 -0.08000801
000150 b1 9f 13 bd a4 1a 68 bd 57 a3 eb bc 6e f5 72 bc
       -0.036040965 -0.05666603 -0.02876441 -0.014829023
000160 bd 98 70 bd 18 1f a4 bd 23 9b 6a bd 0b 73 a4 bd
       -0.058739413 -0.08013743 -0.057276856 -0.08029755
000170 59 b5 2e bd 01 b4 93 bd 49 e9 d7 bd 51 ef d2 bd
       -0.042653415 -0.072120674 -0.105425425 -0.10299552
000180 19 5e a0 bc e4 e3 a1 bd 52 42 9f bd a6 32 1f bd
       -0.01957612 -0.07904795 -0.077763215 -0.03886666
000190 f6 ca af bd fa f8 a7 bd 9c 21 83 bd b6 99 5e bd
       -0.085836336 -0.082017854 -0.06402895 -0.05434581
0001a0 20 77 c6 bd 3a f8 a8 bd d7 ee 4a bd 1d bc 5d bc
       -0.0969069 -0.082504705 -0.04954418 -0.013533619
0001b0 e2 4c 67 bd be 4d 41 bd 12 d3 63 bc 02 a9 bf 3d
       -0.056469806 -0.04719328 -0.013905304 0.093584076
0001c0 9f 57 99 3d a1 da b8 bd 1b 3a 8d bd 5b 64 de bd
       0.074874155 -0.09026075 -0.06895848 -0.10858985
0001d0 53 65 c0 3d 4c e0 82 bd e2 b2 7c bc 01 81 64 bd
       0.09394326 -0.063904375 -0.015423508 -0.05578709
0001e0 3c 94 6c bd 72 53 d9 3d 42 d8 29 3d 38 d8 80 bd
       -0.057758555 0.10611619 0.041466005 -0.062912405
0001f0 f3 94 d4 bd d4 91 10 bd 32 e9 0a bd 5f 24 49 bc
       -0.10379972 -0.035295323 -0.0339138 -0.012276738
000200 d2 bb c5 bd 79 50 9a bd 63 05 b1 3d 56 37 50 bd
       -0.096549645 -0.0753488 0.086436056 -0.050834022
000210 6f 01 a4 3d 24 b3 47 3c 48 ac 1b 3d d6 80 ae bd
       0.08008086 0.012188707 0.038006097 -0.08520667
000220 1d df ce 3d 02 92 bc 3c 97 78 6b 3d 3f 7f ce 3d
       0.10101149 0.02301884 0.05748805 0.10082864
000230 72 58 54 bc af f9 b4 bd ec 59 b6 3d 35 b6 00 3d
       -0.01296054 -0.08836686 0.0890387 0.031423766
000240 6d 70 24 bc 3d b1 bc bd ca aa b6 bd 59 b6 62 3d
       -0.01003657 -0.09213493 -0.08919294 0.05534968
000250 b1 bd a9 3d 45 d7 aa bc 65 d8 cd bc 3d e8 8c bc
       0.08288134 -0.020854602 -0.025127599 -0.017200584
000260 62 ce 6a bc b1 bf 7f bd d4 8a 8f bd 31 6c 03 bd
       -0.014331432 -0.06243867 -0.07008901 -0.0320856
000270 d0 e5 36 bd 85 19 1e bc 39 08 6a bc 0e 19 95 bd
       -0.04465276 -0.009649639 -0.014284187 -0.072801694
000280 0b f9 4f bd 7d 2f 57 bd ff 1e d1 bd 7b da 9c bc
       -0.050774615 -0.052535523 -0.1021099 -0.019147148
000290 27 7c b9 bd 08 d7 90 bd f8 07 5d bd e3 61 53 bd
       -0.09056883 -0.07072264 -0.053962678 -0.051607024
0002a0 87 72 27 bd c7 68 2c bd a0 ad 13 3d 07 9f 37 bd
       -0.040880706 -0.04209211 0.036054254 -0.044829395
0002b0 8c 5b b6 bd 64 6d c8 bd 62 1c 44 bd df ea 40 bd
       -0.0890418 -0.097864896 -0.04787863 -0.04709899
0002c0 0b 77 27 bd 70 ed d3 bd e0 3d 94 bd 21 9a 54 3d
       -0.040885013 -0.10348022 -0.07238364 0.0519048
0002d0 67 fe c0 bd c1 07 79 bd 01 88 db bd 3e 14 f2 bc
       -0.094235234 -0.06079841 -0.107193 -0.029550668
0002e0 2f 26 d9 bd 72 3d 56 bc 4e 8c 0f bd 10 cd 97 bd
       -0.10602986 -0.013076173 -0.035045914 -0.074121594
0002f0 ab e5 a0 bc b3 3b ab bd 97 da ba bd 45 3c 72 bc
       -0.019640764 -0.08360996 -0.09123724 -0.014784877
000300 43 cf 21 bd 95 66 4d bc 86 e8 ee bc b4 83 70 bd
       -0.0395043 -0.0125366645 -0.02916361 -0.058719352
000310 b0 de 36 bd 32 1f 02 3d 1c 16 c3 bd 33 92 8b bd
       -0.044645965 0.03176803 -0.095257014 -0.06814995
000320 be 1a db bd 4f 0b b1 bc 13 93 45 bd 18 9f d4 bd
       -0.1069846 -0.021611838 -0.048235964 -0.10381907
000330 16 f7 0b bd 5c 20 e6 bc aa 62 fa bb a4 43 aa bd
       -0.034171186 -0.028091602 -0.007641156 -0.08313683
000340 32 3f 91 bd 24 e3 aa bd 8a 8a 69 bd 17 e4 60 bd
       -0.07092132 -0.08344105 -0.057016887 -0.054905023
000350 cc 7a e5 bc 2b 31 be bd b6 2d 93 bc c4 9d 83 bd
       -0.028012656 -0.09286722 -0.017966133 -0.06426576
000360 77 52 0b bd 41 8e a7 bd 82 14 73 bd 9e 05 2d bd
       -0.03401419 -0.0818143 -0.05934573 -0.042241685
000370 07 83 0e bd d5 d9 d5 bd 04 84 83 bd f6 5b ce bd
       -0.034792926 -0.10441939 -0.06421664 -0.10076134
000380 c8 c2 39 bd 88 e8 38 bd e7 18 dc bd 94 4e 8f bd
       -0.045351774 -0.045143634 -0.10746937 -0.069974095
000390 c8 39 9a bd 31 05 6c bd 11 b9 62 bd 54 63 a2 bd
       -0.07530552 -0.05762214 -0.055352274 -0.079291016
0003a0 72 9d ba bc cc b6 9a bd 31 c2 15 bd d4 fc 7a bc
       -0.022780154 -0.07554397 -0.03656215 -0.015319068
0003b0 77 f8 cc bd 9a da 60 bd d0 3d e1 bc 96 c6 0e bd
       -0.100083284 -0.054895975 -0.027495295 -0.034857355
0003c0 fa d5 9f bd cd 1b 26 bd 1f e2 df bc 08 99 86 bd
       -0.07804485 -0.040553857 -0.027329503 -0.06572157
0003d0 a9 bc 51 bc 2e f7 92 bd 5a 11 39 bc 27 ba 51 bc
       -0.012801328 -0.07176052 -0.011295641 -0.01280073
0003e0 b3 b0 a1 bd 1e df 81 bc cf 11 84 bc a0 ac ea bc
       -0.07895031 -0.01585346 -0.016121773 -0.028646767
0003f0 4c 75 2b bd 18 62 5e bc 38 e9 9f bd 52 6f 8c 3d
       -0.04185991 -0.013573192 -0.07808155 0.0685717

conv2.0.bias f4 [32]
000000 e1 fb 6e bd 12 24 b3 bd 4d 2f 70 bd a9 08 6a bd
       -0.05834568 -0.08747114 -0.05863886 -0.057137165
000010 1d d9 cd bd 35 7e 87 3f e5 33 d8 3f 56 e3 92 bc
       -0.10051177 1.058539 1.6890837 -0.017930668
000020 5c c3 38 be 5a bd 22 bf a8 f1 9e bb fc c4 db 3e
       -0.18043274 -0.6357018 -0.004850585 0.42923725
000030 35 ad 9b be cf 06 40 3e 1f 61 94 bd 50 6d c3 bd
       -0.30405584 0.18752597 -0.07245087 -0.09542334
000040 a8 ed ab bd d9 bb 8e be 7d d7 ca bd f3 a0 90 3b
       -0.08394939 -0.2787769 -0.099043824 0.004413718
000050 58 93 43 bd 0b d5 9c bd 74 fe c2 bd 32 33 9b be
       -0.04774794 -0.07657822 -0.09521189 -0.30312496
000060 b9 0f 8c be 3d f7 cd bd 94 95 ff 3e 8b fd 2b bf
       -0.27355745 -0.100569226 0.49918807 -0.6718375
000070 a6 ae 26 40 03 6d 2b bd 4d 37 a7 bc 40 9d 26 be
       2.6044097 -0.04185201 -0.020412112 -0.16270924

out.weight f4 [4, 1568]
000000 50 18 74 3d 55 a5 11 3d 9a a0 44 3d 51 f9 99 3d
       0.0595935 0.035558064 0.048004724 0.075182565
000010 ad 4d 1c 3d b2 58 58 bd 0a 25 5b bd 03 35 1f bd
       0.038160015 -0.05281896 -0.05350212 -0.038868915
000020 cb e8 8f bd 3b 56 87 bd 51 42 a2 3d f0 dc a4 3d
       -0.070268236 -0.06608244 0.07922805 0.08049953
000030 54 35 90 3d b8 0c 23 3d 74 3e 1b bd 98 ea 2d bd
       0.070414215 0.03980705 -0.037901357 -0.042460054
000040 9c dd 5a bd c0 0b 57 3d 6f aa 14 3d 0d 2e ae 3d
       -0.053434 0.05250144 0.03629535 0.08504877
000050 d5 a6 47 3d 0f 1d 21 bd a2 ab 2a bd cf b3 79 bd
       0.048743088 -0.039334353 -0.041667588 -0.060962494
000060 4e f6 52 bd 88 6a 63 bd b4 df 13 3d 12 b6 45 bd
       -0.051504426 -0.055521518 0.03610201 -0.04826934
000070 69 51 9e bd 8b 08 a0 bd 63 e9 a8 3d b9 11 46 3d
       -0.077303715 -0.078141294 0.0824764 0.048356745
000080 0a 5d 16 bd 95 00 95 bd c6 d7 ad bd 13 57 7d 3d
       -0.036709823 -0.07275502 -0.08488421 0.06185062
000090 f6 26 8f 3d ef db 9c 3d ed 83 9c 3d 07 bf a0 3d
       0.06989853 0.076591365 0.0764235 0.078489356
0000a0 57 e7 4d 3d 58 1f 95 bd 1a c8 ad 3d 62 8e 70 3d
       0.05026945 -0.07281369 0.08485432 0.058729537
0000b0 af 6c 8a 3d d6 35 8f 3d 51 1e 63 3d 74 98 8f 3d
       0.06759011 0.0699269 0.055448834 0.070115
0000c0 5d 45 a7 3d ba a2 74 bd 98 c9 55 3d 5c 0a c8 bd
       0.08167527 -0.0597255 0.052194208 -0.09767601
0000d0 4c 56 c0 bd c6 bc 6a bd d3 f5 e7 3c 82 f0 59 3d
       -0.0939146 -0.057308935 0.02831546 0.05320788
0000e0 3f 61 86 bd 74 64 c3 bd 9c 8a 22 3d dd b3 af 3d
       -0.06561517 -0.09540644 0.03968297 0.08579228
0000f0 a6 81 7e 3d 85 04 d6 3d bd 5a b9 3d 99 2c aa bd
       0.06213536 0.10450081 0.0905051 -0.083092876
000100 f8 e0 b3 bd 02 8e 86 3b c3 5f 22 bc 65 2d cf 3c
       -0.08783144 0.004106284 -0.009910527 0.0252902
000110 4c a2 8d 3d d4 9f c9 3d ee 95 a4 bd b9 ed d5 bd
       0.06915721 0.09844938 -0.08036409 -0.104457326
000120 77 fd 72 bd 30 76 af 3d d8 46 71 3d 69 c6 0b bd
       -0.059323754 0.08567464 0.058905452 -0.034124766
000130 e8 a5 bd bd f6 10 68 bd 69 7b 6e bd cb 2a 9c bd
       -0.0926016 -0.0566568 -0.05822316 -0.076253496
000140 8b 10 b9 bd ef 51 c3 ba 84 5f 09 bd 04 f9 7a bd
       -0.090363584 -0.0014901737 -0.033538356 -0.061272636
000150 aa 96 87 bd 0a 33 a0 3c 08 c9 78 3d f6 ce 91 3d
       -0.06620534 0.019555587 0.060738593 0.07119553
000160 dc 42 af 3d 9b 1d 3b 3c 3f f8 62 bd 07 32 25 3d
       0.08557674 0.011420633 -0.055412527 0.040330913
000170 43 65 bc 3d 7f 95 17 3d 54 19 8e 3d a8 c4 a0 3d
       0.09199002 0.037007805 0.06938425 0.07850009
000180 f2 36 8f 3d 65 2c 85 3d 70 d6 39 bd 74 f1 b1 bd
       0.06992902 0.06502608 -0.04537052 -0.08688632
000190 ae 53 61 bc d5 bd ec 3c 81 95 49 3d 0a 6c d1 3d
       -0.013752861 0.028899113 0.049214844 0.10225685
0001a0 6b f4 ad 3d 7f 84 82 bd 04 54 da bd e0 cf d0 bd
       0.08493885 -0.06372928 -0.10660556 -0.10195899
0001b0 96 c7 55 bd 09 78 8b 3d 8a 70 89 3d a8 b5 4d 3d
       -0.052192293 0.06810004 0.06710918 0.05022207
0001c0 ad f7 97 bd 66 f2 a8 bd 03 1e af bd 1e 91 c6 bd
       -0.07420287 -0.08249359 -0.08550646 -0.09695648
0001d0 55 ef 96 bc 7a 7e ae 3d ad 87 79 bc b2 1a aa bd
       -0.01842467 0.08520217 -0.0152301015 -0.08305873
0001e0 42 ba a2 bd c2 d4 ec bd 13 89 03 be 64 cc 84 bd
       -0.07945682 -0.11564018 -0.12845258 -0.06484297
0001f0 d6 08 a7 bc e1 2d 8c bc 83 5b e7 bd 8c 07 9e bd
       -0.020389955 -0.01711172 -0.11296751 -0.07716283
000200 15 7d 0b bd ac 76 ba bd cd 9d ae bc a6 51 f1 3d
       -0.034054834 -0.09104666 -0.02131548 0.11783151
000210 1e 37 35 3c b5 c2 e1 bd b6 d3 c8 bd 11 3d 13 bb
       0.011060504 -0.110234655 -0.09806006 -0.0022466818
000220 54 13 16 3d 32 e1 ca 3d 5c c7 10 3e c0 ed c2 bb
       0.036639526 0.09906234 0.1413855 -0.005948752
000230 35 22 3c 3d fe e0 a9 3d 46 b0 bd 3d 69 25 c5 3d
       0.04593106 0.08294867 0.09262137 0.09626276
000240 21 a6 8c 3d 88 93 c5 3d e8 e6 3b bb ee fb dd bd
       0.06867624 0.0964728 -0.0028671566 -0.108390674
000250 39 53 1e bd 81 e1 1a 3c 6e 9d 96 3d 85 82 8d 3d
       -0.038653586 0.009453178 0.07354246 0.0690966
000260 e2 b0 2b 3d c6 16 00 3d af 17 e5 bd 27 dc f8 bc
       0.041916735 0.03127172 -0.11186158 -0.030378414
000270 09 d2 80 bd d7 50 3c 3d c6 0e 8d 3d c1 c4 8a 3d
       -0.06290061 0.045975532 0.068875834 0.06775809
000280 32 bd 17 bd dc 63 8e bd eb 85 ac 3c 0f 36 8e 3d
       -0.037045665 -0.069526404 0.02105995 0.069439046
000290 01 94 a0 3d 19 7d cd 3c bb 8f 94 3d 7e ad 49 bd
       0.078407295 0.025084065 0.07253977 -0.04923772
0002a0 dd 04 92 bd 82 b0 fd bd 50 74 af bd 1c 7c cc 3c
       -0.07129834 -0.12387182 -0.08567107 0.024961524
0002b0 30 93 87 3b f5 2e 99 bd b9 4f 32 bd a7 1e 7c bd
       0.004137419 -0.074796595 -0.04353306 -0.06155267
0002c0 82 0b c6 bd 97 86 03 3e 0e 22 a1 3d 8a 5f 82 bd
       -0.09670164 0.1284431 0.078678235 -0.06365879
0002d0 0d e7 7a bd 76 2a 52 bd 7f f0 38 3d 98 4f b3 bc
       -0.061255503 -0.051310025 0.04515123 -0.02188854
0002e0 11 26 87 3d f0 90 6e 3d 32 8f 02 bc f8 34 4c bd
       0.065990575 0.058243692 -0.007968711 -0.049855202
0002f0 d0 14 3c bd f1 84 af 3d f9 b2 ec 3d b3 1e ec 3d
       -0.045918286 0.085702784 0.11557574 0.11529293
000300 f4 3b bd 3d 0d cd 67 3d b5 43 ed bc 1c 96 9d bd
       0.09239951 0.056592036 -0.02896295 -0.07694647
000310 61 e2 92 bd 99 3d 9b bd 66 08 88 3d 80 3c a1 3d
       -0.071720846 -0.07580108 0.06642227 0.078728676
000320 71 92 9b bd 1d d7 59 3c e6 12 c4 3c 75 e5 49 bd
       -0.07596291 0.013295916 0.023934793 -0.049291093
000330 ae c1 54 bd ea 68 8a bd 78 4e a0 bd e9 79 90 bd
       -0.05194252 -0.06758292 -0.07827467 -0.070545025
000340 81 39 a8 3d 71 9e 7a 3d be 71 9d bd ca 93 8f bd
       0.08214093 0.061186258 -0.0768771 -0.070106104
000350 39 09 a3 bd 26 f3 3f bd 1d e7 8a bd 00 f5 21 bd
       -0.079607435 -0.046862744 -0.067823626 -0.03954029
000360 0d 34 3d 3d b3 10 7b bd 82 38 62 bd 43 0f 30 bd
       0.046192218 -0.061295222 -0.05522967 -0.042983305
000370 c8 b2 8d bd f2 0d 76 bd 9f f9 a4 bd 84 49 52 bd
       -0.069188654 -0.060071893 -0.08055424 -0.05133964
000380 a2 df db bd b2 21 99 3d 78 60 68 3d 70 82 64 3d
       -0.10736014 0.0747713 0.056732625 0.055788457
000390 1f 1a 93 bd 1f 3c a6 3d 7f 02 43 bd 5c a8 40 bd
       -0.071827166 0.08116936 -0.047609802 -0.04703556
0003a0 56 63 85 3d 74 2f 31 bd 77 92 59 bd 6e 37 41 3d
       0.065130875 -0.043258145 -0.053118195 0.047172002
0003b0 2b 74 85 3d 2b 9b 60 3d b0 75 0d bc 3c a5 b2 3c
       0.06516298 0.05483548 -0.008634016 0.021807306
0003c0 ef 89 df b9 70 ff 79 bd 23 bf 19 3d 75 ad a7 3d
       -0.00042636643 -0.06103462 0.037535798 0.08187381
0003d0 b4 f1 5c bd 9c 98 e2 bd 85 a6 2e bf 37 a0 20 be
       -0.053941444 -0.11064264 -0.6822284 -0.15686117
0003e0 11 75 94 3d 50 a5 b1 3b e2 27 a9 be 86 bb 66 3f
       0.07248891 0.005421318 -0.3303824 0.9012989
0003f0 e7 ec b6 bf 98 a7 2c bf a0 75 e4 be 80 07 01 3e
       -1.4291047 -0.6744323 -0.4462099 0.12600517

out.bias f4 [4]
000000 1f ad 77 3d 6e ee 32 3d 33 0a 88 3d 7b ea 05 be
       0.060467836 0.043684416 0.0664257 -0.13077728
